dual_head_cnn.pth (torch, 100108 bytes, 10 tensors)

conv_layers.0.weight f4 [16, 3, 3, 3]
00000000: c964 5e3e dc10 ea3d bea6 373e 890f 823e
00000010: 119a a33d 9f43 653e 7e2f 893e e2fb 92bc
00000020: 5153 7cbd 161f ad3c c592 babe 400e e6be
00000030: 4dc9 dfbd b0a2 fcbd 99d3 1bbe 36e9 debe
00000040: a062 8bbd 1901 86be 4506 11be 53e8 f0bd
00000050: e07a c0be cbe6 40be 01bd 80be b39c 1dbe
00000060: c632 edbe 5db7 89be ed1b 9fbc db71 0abd
00000070: ff19 65be 3b04 c8be bbe2 b6bd 9014 82be
00000080: adcb 90be d382 bbbe b947 8dbe 47e0 98be
00000090: 7790 02be b5d1 48be 87d0 f4be bef2 a0be
000000a0: 8b29 43be 3951 83bd a9e4 89be ff63 10be
000000b0: 6fb1 12be 4976 b13d 422e c03d c5cf 02b9
000000c0: 79be 093e d63e 6d3e f7a8 6c3e b6cd 713e
000000d0: 12f4 fc3c ad66 253e de9d 2dbc 442b 4d3e
000000e0: db2d 633e eff7 2a3e 15a6 793d 78e3 473e
000000f0: 2134 0f3e d207 52bc 6289 0a3e dbc2 733e
00000100: 1836 f3bd cab2 c93d 6c9b 80bd 06a5 fa3d
00000110: cc5c 643d 0bec 00bb 8506 653e 6a7d ccbd
00000120: da67 413e 6b66 573e 6570 163e 5515 903d
00000130: 00bf a13e 06f5 3b3e bdea 7e3e 918f b5bc
00000140: fb90 923e ac42 b53d 8e23 f53d a106 5f3e
00000150: 3d82 c53d 1df5 bc3c 33fe 6b3e f194 123e
00000160: adec 7c3e e470 7d3e b1d3 d3be bfab bfbc
00000170: 5588 c5be cc09 93be 23f7 a1be edbc 56be
00000180: 68cd c1be f5c0 a2be 9b66 92be 338e 43be
00000190: 3f3f d0bd 0551 2abe 218d 8bbe 6c7e 373c
000001a0: 697a 47be f600 cebe c990 93be c0b4 9fbe
000001b0: ff24 45bd 8641 febd ba34 dc3d ecae 93bd
000001c0: b97f 6d3d abe2 193e b41e 353e 3ecd af3b
000001d0: 0504 ed3d 943c 703d 4bc9 a73d e11e c7bd
000001e0: 8a27 8cbd 4eec 7f3e bd34 a6bd 2a0d 6d3e
000001f0: c686 b63d e9c1 753e 2aae 123e 588b 6c3e
00000200: 8a2a 263e 74b8 993e 8b47 903e 32b1 853e
00000210: da4e 893c b8d1 a03e 7d21 6a3e 26a9 51be
00000220: a446 98be 27fc 31be 98da 62be 70bd 97bd
00000230: 44a3 d5bb d0d4 08be b5f4 223e d3d2 9e3d
00000240: 2815 25be c20a 94be 7471 d33c 5e5f d0bc
00000250: b389 f3bd 8e09 ccbb 8ac6 fabd f3c0 0dbd
00000260: 2fd4 dfbd b595 0d3e 1125 a2bc 2744 653c
00000270: 73b3 143e e082 383e ccef 473e e2cf 0abd
00000280: 453e 793e 9c75 8a3e 41b6 803d b3fe 32bd
00000290: c749 2c3e 10dd c33d 6831 6a3e 04ba cb3d
000002a0: db6b 61bd 9375 f03d 43ce 693e f750 a03e
000002b0: 853d 963d e5b7 7e3e 6358 083e 931d 9c3e
000002c0: 2563 9d3e 8ea2 6e3e 75a5 ae3e 1e99 ab3e
000002d0: e597 863d 993d 463e 8dca 4dbd 4406 6b3e
000002e0: 022b 253e 07bd 3e3e ae16 85bd cf86 003e
000002f0: 9f49 eb3d f76d a8bc ae80 8e3d a216 dabd
00000300: 8cb9 fa3d ea95 e73d ddf6 08be 8d1d bcbd
00000310: 4d7b 53bc dab9 183d 9c02 9a3e 10c7 693e
00000320: 5453 393e 54d2 063e 6c43 2c3e cf63 963e
00000330: e601 973e 27cd 913e 2ab4 7a3e 7485 3b3e
00000340: 0c39 9cbd a088 d93d 5c7c 293d bff3 4cbd
00000350: 10eb 763e 7741 393e 5439 cb3d 7c1b 5f3e
00000360: 8bf7 62bd 899b f0bd a9ef 06bd 0f9d 89be
00000370: 8c83 b43c a2cc 743d eaed 66be faa6 26be
00000380: b087 8abe 6761 adbe 38b5 50be beb2 56be
00000390: e337 26be 8b88 b2bd beef 8cbe 28a7 8c3b
000003a0: 03d3 dabd 8661 85be 22f5 cc3d 8c99 0dbd
000003b0: f1d6 193e fd2b 8b3e 73b2 013e ae36 7b3e
000003c0: c96c 903e b5e4 443e 50da bdbd 51ff 0abe
000003d0: 04d8 29be bb51 9cbe 0a0c 1abe cb58 44be
000003e0: 31a4 43be e1f4 b4be b67b 923b 44ff 3fbe
000003f0: eb46 8bbe 462a 16bd d3b7 5fbe 21a8 89be
0.21718134 0.11428997 0.17934701 0.25402477 0.0798837 0.22389077 0.26794046 -0.017942373
-0.061602894 0.021132987 -0.364401 -0.44932747 -0.10927067 -0.12335718 -0.15217437 -0.435373
-0.068059206 -0.26172712 -0.14162548 -0.11763062 -0.37593746 -0.1883804 -0.251442 -0.15391807
-0.463278 -0.26897708 -0.019422496 -0.033799987 -0.22373198 -0.39065728 -0.08929964 -0.25406313
-0.28280392 -0.36623248 -0.27593783 -0.2985861 -0.12750421 -0.19611247 -0.47815344 -0.31435198
-0.19058816 -0.06411976 -0.26932266 -0.14100645 -0.14325498 0.08665139 0.09383823 -0.00012475166
0.13451566 0.23168501 0.2311133 0.23613629 0.0308781 0.16152449 -0.0105967205 0.20036036
0.22185461 0.16696142 0.060949404 0.19520366 0.1398473 -0.012819247 0.1352897 0.238048
-0.11875552 0.098485544 -0.06279644 0.12238507 0.05575256 -0.0019671943 0.22365768 -0.09984858
0.18887272 0.21035163 0.14691313 0.07035319 0.31591034 0.18355188 0.24894233 -0.022163184
0.28626236 0.08850607 0.11969672 0.21779872 0.096439816 0.023066098 0.23046188 0.14314629
0.2469966 0.24750096 -0.41372445 -0.023397325 -0.38580576 -0.28718412 -0.31633863 -0.20970507
-0.37852025 -0.3178784 -0.28593907 -0.19097213 -0.10168313 -0.16632469 -0.2725611 0.011199575
-0.1948029 -0.40235108 -0.288214 -0.3119259 -0.048130985 -0.12414841 0.10752244 -0.07211098
0.057983134 0.15027873 0.17687494 0.005365043 0.11573032 0.05865152 0.081926905 -0.097226866
-0.06843479 0.24992487 -0.08115528 0.23149553 0.08912425 0.23999752 0.14324251 0.2310003
0.16227165 0.3002354 0.28179583 0.26111752 0.016761232 0.31410003 0.22864337 -0.20474681
-0.29741395 -0.17381345 -0.221537 -0.07409179 -0.006519707 -0.13362432 0.15913661 0.07755055
-0.16121352 -0.28914458 0.025810935 -0.0254361 -0.118914984 -0.006226725 -0.122448996 -0.03460784
-0.10929143 0.1382664 -0.019793065 0.0139933 0.1452158 0.18018675 0.19525069 -0.03388966
0.2434016 0.27042854 0.06284762 -0.04369993 0.16825019 0.09563649 0.2287041 0.09947589
-0.0550345 0.117411755 0.22832589 0.3131177 0.07335953 0.24874838 0.13314967 0.30491313
0.30739704 0.23304197 0.3411061 0.33515257 0.0657194 0.19359435 -0.050241996 0.22951609
0.16129687 0.18626796 -0.064984664 0.12551425 0.114886515 -0.020560248 0.069581375 -0.10648848
0.122424215 0.11307891 -0.13375421 -0.09185324 -0.012907815 0.037286617 0.30080116 0.22829843
0.18098193 0.13166171 0.16822594 0.29373023 0.29493636 0.2847683 0.2448279 0.18312627
-0.07628068 0.10621762 0.041378364 -0.050037142 0.24113107 0.18091379 0.09923044 0.21787828
-0.055411857 -0.11748416 -0.0329434 -0.2687764 0.022035383 0.059765466 -0.22551695 -0.16274634
-0.27056646 -0.33863375 -0.2038163 -0.20966622 -0.16232257 -0.0871745 -0.2752666 0.0042923875
-0.106847785 -0.26050967 0.10007693 -0.03457026 0.150234 0.27181998 0.12665729 0.24532577
0.28207996 0.1922787 -0.092701554 -0.13573958 -0.1658631 -0.30531105 -0.15043655 -0.19174497
-0.19105603 -0.35343078 0.004470314 -0.1874972 -0.27202544 -0.03666141 -0.21847467 -0.26886085

conv_layers.0.bias f4 [16]
00000000: 724d cdbd 75e0 413e fc3f 88bd b32d 483e
00000010: fd54 9dbc 7da6 bcbd f47a 543d 268d 3bbd
00000020: 482a 23bd 4817 c43d c11a edbb 8b4a 313e
00000030: 002b 433e 2e72 183e ec7d 10be 7ebf 933e
-0.10024537 0.1893328 -0.06652829 0.19548683 -0.019205565 -0.092114426 0.05187507 -0.045788907
-0.039835244 0.09574753 -0.0072358553 0.17313592 0.19059372 0.14887306 -0.14110535 0.28857034

conv_layers.3.weight f4 [32, 16, 3, 3]
00000000: 3674 d73a 1d8f 863d 9f35 52bd 3670 83bc
00000010: 8dc2 abbd d805 543d 54f5 82bd 4597 7d3d
00000020: fab4 793d f852 7c3d e038 1e3c c0fb bb3c
00000030: f03a 5d3b 393a 3e3c 6097 733d c6b0 f03c
00000040: bb26 733d 60ee 78bd 6c2b 9fbd 4268 683c
00000050: 9d43 473d 1977 a8bd b5c5 afbd 35d4 64bd
00000060: ae85 b4bb 7af6 623c 26f4 a23c 917f 13bd
00000070: 0cfb 94bd ab01 62bc ef4f 303d 08e2 88bd
00000080: 8b08 01bd 0244 783d 5771 923d 041b 363d
00000090: 1f2b 06bd fc82 82bd 3e77 07bd 88cf 623d
000000a0: 1253 1d3d 5e59 213d 7c36 babd 59f3 02bd
000000b0: 45ac fdbc ab75 edbc 9d6d 853d 3bab ccbc
000000c0: fac3 ee3c 5e5d b1bd 86b7 0ebd ce83 73bd
000000d0: 3dd8 9ebd fbbd 8fbc b6d5 09bc a3bc b03c
000000e0: d9f8 6a3d d6eb 97bd a0af 51bd 5ba4 91bd
000000f0: 56e6 44bd 7ba5 4e3c 5e65 45bc db1f 583d
00000100: fd33 f2bc 9951 04bc a85f a5bd cf83 763d
00000110: 77fd 9c3d 700d 843c 535c aabd 019f 4ebd
00000120: 66e2 93bd 20f1 4abc 8055 6e3d ffd1 79bc
00000130: 3f8e 493d 1d69 cdbd 180d 323d d6a4 10bd
00000140: 6bf1 9e3c bbbe 4cbd 2891 a6bd 77a7 9bbd
00000150: a29d 89bd 2854 023d 4dbf 0b3d a307 9bbd
00000160: f01f 6d3d 93f8 3b3d f7c8 843d 4d97 82bd
00000170: 3bf5 1abd 61b9 78bd 6e8f b1bc 335f 82bd
00000180: 6b6c 943d ec85 2abd d60b 77bb 8861 1b3d
00000190: b42c 1abd 37f0 39bd bc7d 24bd a95d 143d
000001a0: bf2e 743d b930 623d 1252 7bbd 9fc3 09bd
000001b0: 82c7 9dbd 2b07 84bb 20d6 db3c 4b7d 34bd
000001c0: d6a4 74bd 86ff b93c 23dd 003d 5811 77bd
000001d0: 8bfd f6bc 4437 8a3d 0b0b 673c aec3 74bd
000001e0: ee60 d6bc 9458 153d a2a8 adbd 9649 50bc
000001f0: 06fa 803c 2043 5b3c 3653 86bd f69f b23c
00000200: 7647 41bc 1b61 5bbd e094 d3bc 8066 d33c
00000210: 00d3 ecbc b081 2dbd 60e3 543d 6387 4b3c
00000220: f409 063b 3c3f b13b 4cad 293d 91d2 8abd
00000230: 8c64 8ebd c8f4 0cbd 76de c3bc 0697 bfbc
00000240: 6070 273d 5325 e93d 5786 123e e66e 733d
00000250: f447 53ba bda5 0a3d e111 723d d1b4 f83d
00000260: 76e5 ae3d aa3b 143d 8120 e63c 9aad 313e
00000270: d53d d13d 3e10 8b3d f58e 703d b93f 043d
00000280: 4960 6c3d 4eed bf3d 4fb4 c83d 75d1 07bd
00000290: 9294 cb3c 6658 94bc 9e67 dc3c bba2 3d3d
000002a0: 9564 cd3c 26bc 393d f4ad 853d d5fd 073e
000002b0: 0406 213e a14e 183e 52c5 783b ca90 0a3e
000002c0: 0557 053e 957a c43d 0992 1b3e 3e42 023e
000002d0: 3fee a53d 1d0b 563c a3eb 8b3d a55e 87bb
000002e0: 1f4d e63c eb93 44bd 9f78 92bc a41d 133d
000002f0: 7930 07bd ebe8 443d e788 35bc c104 b03c
00000300: b175 8c3d 59fc f73d 4697 be3d 7f25 d23c
00000310: 1656 523d b3c2 0e3e 6a61 9abd 3050 edbd
00000320: aa71 84bd dae3 16bc 4976 06be a202 94bc
00000330: 8612 a7bd 66c6 3d3c 8188 33bd ed71 c73b
00000340: cbf3 39be e4bb 4fbe 9e72 2bbd 9aa4 f9bd
00000350: eece b0bd 4e1a f0bd 0816 c5bd 8b8d 13be
00000360: c900 d33c 44a2 633d 4b2d d23d 378b a73c
00000370: e5e1 1e3d 72e0 0a3e 9db1 513d 0dde cb3d
00000380: 0ca3 b43c 2ee6 403d bbe2 1e3e 50d3 0d3e
00000390: c772 023e 8ceb b33d adc2 cb3d 9db3 d83c
000003a0: 0b47 2e3e 543b b73d 2959 203e d78f 313e
000003b0: b161 9a3e b4b5 17be e1b3 fcbd 49ad b6bd
000003c0: 112b 3bbe 3a4d 2bbe 80ae 5fbe 0436 793b
000003d0: e888 3d3d 4bae 363c 8355 9e3d 5bc1 913c
000003e0: 33bb 5c3d 94a0 b63d 1c3d 36bd 1c2c de3d
000003f0: 4223 9cbc 028e 87bb 1bcd 59bc 2d08 a0bd
0.0016437832 0.065702654 -0.05132067 -0.016044717 -0.08386717 0.051763386 -0.06394449 0.06191184
0.06096361 0.061602563 0.009657115 0.022947192 0.0033757053 0.011610561 0.059470534 0.029381167
0.059363108 -0.060774207 -0.07771954 0.014185013 0.048648465 -0.08225841 -0.085826315 -0.05586644
-0.0055091 0.01385271 0.01989181 -0.03601033 -0.07274446 -0.013794343 0.04304498 -0.06683737
-0.031502288 0.060611732 0.07150524 0.044459358 -0.032755967 -0.063726395 -0.033072703 0.0553737
0.0384093 0.039391868 -0.09092423 -0.031970356 -0.030965934 -0.028986773 0.06515048 -0.024983993
0.029146183 -0.086603865 -0.03484299 -0.05945187 -0.07756088 -0.017546644 -0.008412769 0.021574324
0.057366226 -0.07418029 -0.05119288 -0.071114264 -0.048071228 0.012612696 -0.012048094 0.052764755
-0.029565806 -0.008076095 -0.080748856 0.060184296 0.07665532 0.016119689 -0.08318391 -0.050444607
-0.072209165 -0.01238659 0.058187008 -0.015247821 0.049207922 -0.100298144 0.04346952 -0.03531345
0.019402226 -0.049986582 -0.08133155 -0.07600301 -0.06719519 0.03181854 0.034117986 -0.07569816
0.057891786 0.045891356 0.064836435 -0.063765146 -0.037831526 -0.060723666 -0.021674838 -0.06365814
0.072472416 -0.041631624 -0.0037696264 0.03793481 -0.03764029 -0.045395102 -0.040158972 0.036222134
0.059614893 0.055222247 -0.061357565 -0.033633824 -0.07704069 -0.004029175 0.026835501 -0.0440648
-0.059727512 0.02270485 0.031460892 -0.060319275 -0.030150196 0.06748822 0.014101754 -0.059756927
-0.026169267 0.036461428 -0.0847943 -0.012712857 0.01574422 0.013382703 -0.0655884 0.021804791
-0.011796823 -0.053559404 -0.025827825 0.025805712 -0.028909206 -0.042360008 0.051974654 0.012422415
0.002045271 0.0054091495 0.041425034 -0.067784436 -0.069527715 -0.03441313 -0.023909789 -0.023387443
0.040878654 0.11384072 0.14309059 0.059431933 -0.0008059733 0.033849467 0.059099082 0.12143863
0.0853986 0.036189713 0.028091671 0.1735138 0.10216872 0.06790207 0.058730084 0.032287333
0.057709012 0.09371434 0.09800016 -0.03315874 0.024851117 -0.018108558 0.026904877 0.04629777
0.025072375 0.045345448 0.065273196 0.13280423 0.15724951 0.14873745 0.003795941 0.13531795
0.13021477 0.09593693 0.15192427 0.12720582 0.081020825 0.013064173 0.068320535 -0.0041311556
0.028112946 -0.047992628 -0.017879782 0.03591694 -0.03300521 0.04807369 -0.011080003 0.021486642
0.06858385 0.12108678 0.09306197 0.025652645 0.05135163 0.1394146 -0.075381115 -0.1158756
-0.06466992 -0.0092095975 -0.1313106 -0.018067662 -0.0815783 0.011582946 -0.043831352 0.006086579
-0.18159406 -0.20286518 -0.041857354 -0.121895984 -0.08633219 -0.11723767 -0.09623343 -0.14409463
0.02575721 0.05557467 0.10262545 0.020452125 0.03878965 0.13562182 0.051194776 0.09954462
0.022050403 0.047094516 0.15516178 0.1385014 0.12739097 0.087851614 0.09949241 0.026452834
0.17019288 0.08946863 0.15659012 0.17340027 0.30152658 -0.14815408 -0.12338997 -0.0891977
-0.18278147 -0.16728678 -0.2184391 0.003802658 0.046273142 0.011149953 0.07731154 0.017792394
0.053889465 0.089173466 -0.044491872 0.10848257 -0.019059781 -0.0041368017 -0.01329353 -0.078140594

conv_layers.3.bias f4 [32]
00000000: 9f77 b8bd db17 6e3d 21ec 633d 39a9 d13d
00000010: 011c 9a3b 9467 173c 288e 133e 2b07 e03d
00000020: fd7d 013e 0844 e63c 16b9 8e3d b18b 3d3d
00000030: 80ff ba3d b3d1 443d f3be ed3c 9ef4 193c
00000040: e23b a6bd 7855 e3bc 993e 883c 9ad7 473e
00000050: 5f3f 0f3d 96dc cfbc cfcd 31bd 191a 38bd
00000060: c7e6 bdbd 54a5 ca3d c4b0 293e f60f 863d
00000070: 37c8 1a3e baaf f2bb d8cd 083e 470a 0d3e
-0.09007191 0.05812822 0.055645112 0.10237355 0.0047030454 0.009241004 0.14409697 0.10938867
0.12645717 0.028108612 0.06968896 0.0462758 0.09130764 0.048051547 0.029021716 0.0093967
-0.081168905 -0.027750716 0.016631411 0.19515839 0.034972545 -0.025373738 -0.043409165 -0.044946764
-0.09272533 0.09894815 0.16571337 0.06546013 0.15115438 -0.007406202 0.13359773 0.13773452

conv_layers.6.weight f4 [64, 32, 3, 3]
00000000: 299d 21bd ea93 eb3c cb6b 953a d89a e93c
00000010: f439 96bc 42fd 0aba 71f2 89bd eb8c 69bd
00000020: 6764 513d 4629 2b3d 75da 83bd c806 43bd
00000030: 5e91 b9bc d434 833b 4718 8dbc 0c44 8bba
00000040: 17e0 e5bc 4d25 d93c dad8 ab3c 97c4 193b
00000050: 4afa 23bc ef9b ccbc 912e ac3a 32bd 6cbc
00000060: 1758 86bc 100f 5abd 47ca 223d 56d9 373d
00000070: 84df 033c 314c c5bc c5f5 983c 799f 6ebc
00000080: 0100 61bd d9e4 b3bc b776 263d c24d a1bb
00000090: 6d41 33bd 31e0 ce3b ddd4 753d 41a5 df3c
000000a0: 2296 2d3d d795 07bd 6561 acbc 7165 c33c
000000b0: 0223 293d 2189 66bd 351d 353d c7a7 1f3b
000000c0: bd8f 7d3c ff37 8ebd 26d9 073d 4c01 27bc
000000d0: 44b2 413d 8293 073d 3d04 8d3c a97f 34bb
000000e0: 87b6 193d d132 64bd d6ac 6bbb 1d23 b93b
000000f0: 17d2 b5bc 41af 55bd fef0 31bd 87a4 83bd
00000100: fc6d 183c fbcb 1c3c 9c0f e4bc 7c1e 193d
00000110: f4e7 173c 267b 423c 9d13 983c 5317 233d
00000120: fa4b 97bc cb02 493d 8dea 463d c1b6 6abb
00000130: 18b6 75bb 9a71 1bbd 0112 46bd 96f6 e6bc
00000140: 6730 7abd 27e7 073d 39eb 0d3d 79ad 40bd
00000150: aff5 3a3c ee8f c2bc 17ac 163c fe9c d7ba
00000160: 3087 87bd 5ce1 2ebd fc88 153d 55b2 43bd
00000170: dae9 543c 5914 13bc 80dc 12bd 809b f2bc
00000180: 806d 12bb 8f3e 2b3d d8d9 cfbb 0c2b 81bd
00000190: a445 3e3d d026 44bd 2ff8 2c3d 03d1 2ebd
000001a0: 89c7 373c 08b7 debc 1a6d babc f249 45bd
000001b0: ef24 163c 9d39 d03b 84bc 74bd 1806 473d
000001c0: ad69 593c f8f5 3d3d 765c 06bd a040 93bc
000001d0: 8624 49bd 0a7d cdba 6d10 bdbb a59e 08ba
000001e0: 86de 9bbc 7b59 89bd 57ed 89bc fccd 58bd
000001f0: 3441 a63b 8196 52bd 7ab4 d63c 9ec1 72bd
00000200: 9fb3 81bd 2114 213d 3c29 00bd 9e9b 1abc
00000210: 2861 0e3d 77ea d23c 1506 83bc 2e27 053d
00000220: 16f6 453d 0491 e33c e683 8a3c 90d7 38bd
00000230: a630 25bc 33fe 80bd 22ac 5abc 0b8a 023d
00000240: ccc4 5e3d e85f 56bd 319b 633d b90f f5bc
00000250: 1062 a43c 1b00 5dbd 08f1 79bb ffa5 37bd
00000260: 4bb3 5a3d 8c62 353d 6ffb 7bbd bf09 66bc
00000270: 723c 54bc f649 4fbd 264c 2b3c 4126 a3bc
00000280: 5e0a 293d 6d27 3e3d fbe1 8abc 6c6c c6ba
00000290: c35d 30bd a40a 57bd db31 fdbc 3c3d 153d
000002a0: 1429 5fbd 047e 373d 3b65 3ebc 87a3 90bd
000002b0: c7f2 50bd 8085 c8bc 2dd4 c0bb 3091 58bd
000002c0: cdfc 3f3d 2f80 7bbd a6fa 8e3c 28bc 81bd
000002d0: 907b 083d 17a8 163d cf95 653c 909b 1e3d
000002e0: bcab 56bd 2def debc 7913 353d 75db 7ebd
000002f0: 3aaf 1f3c 0fe1 a3bb 0a00 39bd bca2 023b
00000300: 937f 843c 80cb 473d b2cb 48bd 5ec2 603c
00000310: c466 693d c367 543d 2859 273b 78c4 8dbb
00000320: 3f00 1b3d f54d 53bc 7469 4bbd 70a3 1d3d
00000330: c5ed a2bc b306 893c 1c56 0c3d 324e 43b9
00000340: 8d8e 073d 1924 19bd 8af6 9b3c ffa6 783b
00000350: 092e 64bc f652 0dbd d9bc e03c e155 83bd
00000360: fe4a 88bc 398b 1f3c 34c6 1cbd bf3a 3b3d
00000370: 2e8a 5b3d ef7d d6bc c442 28bd f1b8 603c
00000380: c571 5a3d b472 2bbc adbd 99bc 1369 d5b9
00000390: c475 163b 7fbc 46bd d38d 9bbb 7894 883c
000003a0: 1bef 3abd 3eb5 4cb9 71e3 5fbd 54f6 42bd
000003b0: 17c7 4a3d 8965 d9bc 21d2 313d 0fb5 edbc
000003c0: f385 b33b 5ae8 62bd 799c ae3c 4ad5 27bc
000003d0: d911 05bd a7ff c3bc 8215 1a3d a0ab 243c
000003e0: 7dbc 86bd 6ac7 92bc 3fd2 53bd 023b 19bd
000003f0: 84e0 87bd af2d 88bd 8248 28bb c94e 6abd
-0.03945652 0.028757054 0.0011399923 0.028516218 -0.018338181 -0.00053020206 -0.06735695 -0.057019155
0.05112114 0.04178741 -0.06438152 -0.04761389 -0.022652324 0.0040041003 -0.01722349 -0.0010625138
-0.028060956 0.026507044 0.020977426 0.0023463124 -0.010008404 -0.024976699 0.0013136436 -0.014449405
-0.016399426 -0.05323702 0.039743688 0.044885002 0.008048896 -0.024084182 0.01867188 -0.014564388
-0.054931644 -0.021959709 0.04064056 -0.0049225995 -0.043763567 0.006313347 0.060017455 0.027300479
0.042379506 -0.033101883 -0.021042535 0.023852082 0.04129315 -0.05628312 0.044217307 0.0024361478
0.015476164 -0.06944274 0.033166073 -0.01019318 0.047289148 0.03309966 0.017213935 -0.0027541912
0.037527587 -0.055712525 -0.0035961173 0.005649938 -0.022194905 -0.05216909 -0.04344272 -0.064278655
0.009303566 0.009570117 -0.027839474 0.037382588 0.0092716105 0.011870181 0.01856404 0.039817166
-0.018468846 0.04907493 0.04856353 -0.0035814496 -0.003749257 -0.037950136 -0.048357014 -0.028193753
-0.061081316 0.03317943 0.034648154 -0.047040436 0.011411115 -0.023750272 0.009196303 -0.0016449986
-0.06617582 -0.04269539 0.03650759 -0.047777493 0.012995208 -0.008977019 -0.035854816 -0.029615164
-0.00223431 0.041807707 -0.0063431077 -0.06307039 0.046453133 -0.047888577 0.042228874 -0.042679798
0.0112170065 -0.027186885 -0.022757102 -0.048166223 0.009164079 0.0063545243 -0.059750095 0.048589796
0.013269824 0.046377152 -0.03280302 -0.017975152 -0.049107097 -0.0015677523 -0.0057697804 -0.0005211628
-0.019027006 -0.0670652 -0.016836805 -0.052930817 0.005073691 -0.051413063 0.026209105 -0.05926668
-0.06333088 0.039325837 -0.031289324 -0.009436516 0.034760624 0.025746567 -0.015994111 0.032508068
0.04833039 0.02777911 0.016908597 -0.04512745 -0.0100823995 -0.06298485 -0.013346704 0.03186993
0.0543869 -0.052337557 0.055567924 -0.029914724 0.020066291 -0.05395518 -0.003813805 -0.04483604
0.053393643 0.044283435 -0.061519083 -0.01404041 -0.012953864 -0.050607644 0.010455167 -0.019915702
0.041269653 0.046424318 -0.016953459 -0.0015138513 -0.04305817 -0.052500382 -0.030907562 0.03643535
-0.054482535 0.044797912 -0.011620815 -0.0706244 -0.05101278 -0.02447772 -0.0058846683 -0.052872837
0.04687195 -0.061401542 0.017453503 -0.06334716 0.033320963 0.036781397 0.014012768 0.038722575
-0.052409872 -0.027213657 0.044208024 -0.06222101 0.009746367 -0.0050011943 -0.045166053 0.0019933423
0.016174113 0.048778057 -0.049022384 0.013718216 0.05698277 0.051856767 0.002553532 -0.0043263994
0.03784203 -0.012897004 -0.049661115 0.038485944 -0.019888768 0.016726827 0.034261808 -0.00018625779
0.03309493 -0.03738794 0.019038457 0.0037941334 -0.013926991 -0.034502946 0.0274338 -0.064128645
-0.016637322 0.009737783 -0.03827496 0.04571032 0.053598575 -0.026183097 -0.041079298 0.0137159685
0.053331155 -0.010464359 -0.018767202 -0.00040704812 0.0022958377 -0.048519608 -0.0047471314 0.016672358
-0.045638185 -0.00019522474 -0.054660264 -0.047598198 0.049506273 -0.026537674 0.043413285 -0.029017
0.0054786145 -0.05539737 0.021314846 -0.010243723 -0.032487724 -0.023925615 0.037618168 0.010050684
-0.0657892 -0.017917354 -0.05171418 -0.03740979 -0.0663462 -0.066493385 -0.0025677984 -0.05720404

conv_layers.6.bias f4 [64]
00000000: 90d1 e6bc 01d7 c13c d6b6 dc3d 89a6 5dbd
00000010: d16e 383d 35a9 c53d 4e52 b9bc 1d24 a43d
00000020: c2a8 86bd 23c4 683d 1f44 5abd ff6f c33d
00000030: 78e1 b33d bc7d 533c b98d 7ebd f449 d63d
00000040: d6f5 103d 17ea 7b3d 84fe 103c a1f6 203c
00000050: 9b19 4d3d 8674 043e aa6d 363d 924e 043e
00000060: 53e9 a83c e07f 0a3e 1f5a d93d efb8 293d
00000070: 5f1b cc3d 0f82 973d d284 453d 92b2 f43d
00000080: 682c 373c 4da1 3c3d 02c2 c23d 0efe b9ba
00000090: 3b4e 053c 2442 d13c 7b5c 363d bf86 c63d
000000a0: 780d 04bc c109 79bb ff59 8c3d 7d91 183d
000000b0: f249 a1bc 89a4 623d c875 0f3c 2efc 963c
000000c0: 882e 803d d90f 113d ed1b d13d b053 eb3c
000000d0: 9136 6a3d 4688 863d b929 55bd 252e ff3d
000000e0: b65c 09bd ef9f 583d 0135 28bd e548 10bd
000000f0: d1e3 90bc 961a 77bd c9fb 8fbd 7b64 dfbb
-0.028176099 0.023662092 0.10777061 -0.0541139 0.045027558 0.09651414 -0.022622254 0.080147006
-0.06575157 0.056827676 -0.05328762 0.09542846 0.08783239 0.012908395 -0.062146876 0.10463324
0.035390697 0.061502542 0.008849744 0.009824426 0.050073247 0.12935075 0.044538178 0.12920597
0.02061907 0.13525343 0.10612892 0.041436132 0.09966158 0.073978536 0.04822237 0.11948122
0.011180021 0.046052266 0.0950966 -0.0014190094 0.008136327 0.025544234 0.04452179 0.096936695
-0.008059852 -0.0038000199 0.06853103 0.037248123 -0.01968858 0.055332694 0.008756109 0.018430796
0.06258875 0.035415504 0.102104045 0.028726429 0.057180945 0.06568961 -0.052041743 0.12459973
-0.03353568 0.0528869 -0.041066173 -0.035225768 -0.017686756 -0.06032809 -0.07030446 -0.006817398

shape_head.weight f4 [3, 64]
00000000: f8d9 bfb9 747f 7fbe 2c5f 8b3d d7ad c9bd
00000010: 7678 19be ef96 1f3e e4c5 803d bcea f4bd
00000020: d0fb a53c 0dbb 00be f1df 97bb 898d 10be
00000030: 5838 2cbe c4c0 dabd 7fc6 bfbd 0a0a 11be
00000040: 3c27 ccbb df43 c93d bc14 0cbd 0dc4 e83c
00000050: 633f bebd 8710 19be 0d58 aebe 9c07 30be
00000060: 3d3f 38bd 582c 36be 085b 1340 7e86 cfbc
00000070: 7b3d 81be 7a3a 9bbe 1210 27be 79e0 253d
00000080: 48c1 f7be 6294 a6be 642c 2f3e d629 a4bd
00000090: d5e7 65be a935 e4bd 7d82 843d da94 8cbe
000000a0: ce24 afbd 2b4c 8bbc 9b33 49be 0bfa dc3d
000000b0: 66cb 0dbe b7e9 283e ee7f a03d 955a 23be
000000c0: 10a5 533a 80ed cd3d de19 8dbe fd65 3ebe
000000d0: 782f b53d 68ef e63d ef4c 883d 5e52 86be
000000e0: dff2 d0be 1d8c de3d 9b12 973d 2618 c3bd
000000f0: 67e4 493d fb15 623d faae 2f3d 0a79 e13d
00000100: 1683 8fbb 3322 db3d 906d 92ba 77de 8ebd
00000110: 654c 3abc 14be babc 4788 f6bd c8b7 cbbc
00000120: a335 563c 0180 db3d d920 c33d 5175 3b3e
00000130: 9629 c03d baa6 3e3d aacb 10bf 5865 9d3d
00000140: ae7c 0fbe 716d 3a3d 4ed4 26bd 64e3 9cbc
00000150: f852 e1bc 4862 053e 7238 ddbb 98a8 2dbb
00000160: 9613 b1bd e704 f23d 14f8 27be 4bf9 a1bd
00000170: 27a2 1fbd 57b8 c93d 2d6b 913d cf43 783a
00000180: bce2 fcbd 5b4b 1abd b4ca c93d 4d67 053c
00000190: ccd6 88bc 1dd7 0d3e 54c6 ba3d fdd6 ee3b
000001a0: 6000 3dbd f341 f7bd 2b75 053b 5c35 a93d
000001b0: 5e1d f33c 7ed2 d8bd 921f 7d3d ce01 093d
000001c0: 4a72 dc3d ceba 09bd 1c91 a1bc 7447 42bc
000001d0: 476e bd3d bb11 04bd 04c6 2bbd a693 16bc
000001e0: e3a0 04bd 2269 c83d 48bf c53d c4c7 28bd
000001f0: fb23 1bbe 3a65 b5bd 9e5d 703c 9394 cfbd
00000200: acba 813d d285 533c df95 08be e10e 203d
00000210: cd5c 803e 06f7 4dbe b68c ac3c fd19 1abd
00000220: 62b1 a13d ee4f ef3d f759 bf3d 8d05 043e
00000230: eaeb e3bc d898 483d 7294 803f 1d5a 1c3d
00000240: b485 23be 597a 05be f7eb e0bc 4331 dc39
00000250: 4de2 833c 8be4 1e3d b3ce 123e 5239 9a3c
00000260: 1218 bdbd b0c1 2d3d 84c7 44bf 2ca3 87be
00000270: c4e3 033d 4f88 b33d ef5f 93bd d830 77be
00000280: 43ca 6d3f 30bb 3f3e 111a f2be 292f 99bd
00000290: 93c8 19bd deaf 133d 2daa 35be f17b f73d
000002a0: ddf5 9dbd 8896 a93d 6fe3 323e 03a3 38be
000002b0: af35 243d 3c17 2abe 44a1 5bbe d97f f63d
000002c0: 04b2 3a3d f1ee 7abe 548e b8bb 374d f33c
000002d0: b318 c43d e744 4abe d1cf 963b 7ea3 743d
000002e0: e311 eb3e 9039 b7bd 60a0 843d bdf3 b73d
000002f0: a224 8bbd 0d9b 69be 6411 103d b675 ba3d
-0.00036592758 -0.24950963 0.06805262 -0.098476104 -0.14987358 0.1558492 0.06287745 -0.119588345
0.020261675 -0.12571354 -0.00463485 -0.14116491 -0.16818368 -0.106812984 -0.09364032 -0.14163986
-0.006230263 0.098273985 -0.03419946 0.028413797 -0.09289434 -0.14947711 -0.34051552 -0.17190403
-0.044982184 -0.17790353 2.302431 -0.025332686 -0.25242218 -0.30318052 -0.16314724 0.040497277
-0.4838965 -0.32535082 0.17106777 -0.08015792 -0.22451718 -0.11143047 0.06470201 -0.27457315
-0.08551942 -0.017004093 -0.19648592 0.107898794 -0.13847122 0.16495405 0.07836901 -0.15952523
0.00080736075 0.10055065 -0.27558798 -0.18593593 0.088469446 0.11276132 0.06655299 -0.26234716
-0.40810296 0.10866568 0.073765956 -0.0952609 0.049290087 0.055196743 0.04289148 0.110094145
-0.0043796403 0.10699882 -0.0011171568 -0.069760256 -0.011370753 -0.022795714 -0.120377116 -0.024867907
0.013074311 0.10717774 0.095277496 0.18306471 0.09382932 0.04654572 -0.56560767 0.076853454
-0.14012405 0.045514528 -0.040729813 -0.019151397 -0.027505383 0.13025773 -0.0067511136 -0.0026498195
-0.08646314 0.11817341 -0.16403228 -0.07908877 -0.038973 0.09849613 0.0710052 0.00094705535
-0.12347934 -0.03766952 0.09853116 0.008142305 -0.016703986 0.1385159 0.09119859 0.007288812
-0.046142936 -0.12073126 0.0020364027 0.082621306 0.02967709 -0.10587023 0.061797686 0.033448987
0.107639864 -0.033625416 -0.019722514 -0.011857856 0.09249549 -0.03224347 -0.04193689 -0.009190476
-0.032379996 0.097856775 0.09655625 -0.041206136 -0.15150444 -0.08857198 0.014670758 -0.1013576
0.06334433 0.012910323 -0.13338421 0.03907669 0.250708 -0.20113763 0.02106319 -0.03762244
0.07895161 0.11685167 0.09343331 0.12892742 -0.027822454 0.04897389 1.0045302 0.038171876
-0.15968972 -0.13034953 -0.027456267 0.00041998373 0.01609912 0.038792174 0.14336662 0.01882616
-0.09233107 0.042421043 -0.76866937 -0.26491678 0.032199636 0.08766233 -0.07196032 -0.24139726
0.9288675 0.1872375 -0.47285512 -0.07479698 -0.037544798 0.036056392 -0.17740698 0.12084187
-0.0771291 0.08280665 0.17469572 -0.18030934 0.04009026 -0.16610426 -0.21448237 0.12036104
0.045579925 -0.24505211 -0.005632201 0.029699905 0.095750235 -0.19752847 0.0046024104 0.05972623
0.45912084 -0.08946526 0.064759016 0.08982036 -0.067940965 -0.22813053 0.035172835 0.09104483

shape_head.bias f4 [3]
00000000: 5eb3 85bd 784c debb c9cb 22be
-0.06528352 -0.006784018 -0.1589805

color_head.weight f4 [3, 64]
00000000: 7c1a 58bc 52df 46be 005c 0dbe 9d73 cfbd
00000010: 992e b9bd d3f2 983c 0d9d 0ebd ae64 c63d
00000020: 759a 8abc 1a0b 17be 465c 15bd abe0 363e
00000030: 34fa 1c3e f950 39be 3aae c83d 64c4 cd3d
00000040: d7f0 d0bd d4c4 9e3c e7f9 b93c 6ac7 063e
00000050: 104a 2fbe 870b 91bd 2cd1 d23d 65be 2a3e
00000060: 206f 69bb fc9a ea3d fa5e 1ebe 2c83 333e
00000070: 6466 b6bd 402a fabe bf18 c13c 559e e33d
00000080: 5215 893d e45f b0bd f96f b2bc 6bf7 3abd
00000090: e3d4 d1bd 0a1b b4be aed4 2a3e d7a9 d9bd
000000a0: 4920 a83d 57e5 063c be89 2e3e b52e babd
000000b0: d46e 723d 27a8 9fbd 928c 2bbd cbce 243f
000000c0: 16f5 13be ccf1 f13d 7e60 9c3c dac3 e6bd
000000d0: 6a0a 2bbe fce0 533d 873d 12bd 6290 f03d
000000e0: 7458 0c3e 545f 1cbd 36ac 82bd e658 1abd
000000f0: c1b4 39bd c344 a9bd 2677 4e3d 1a55 debd
00000100: 972b 53bd 2ed6 2bbe 2249 7e3d 4d2a c7bc
00000110: e7d8 1fbe dbcb bcbd c768 193d 3843 2ebe
00000120: 3e3a 27bc 1045 ad3e 0f5a d2bb 4708 8fbd
00000130: 1ead d9bd fce8 eebd 9ce8 a23b 9e57 1dbe
00000140: 4793 b8bc 6def 38be 3ca5 19be c895 1bbe
00000150: 095c b2bd 58f5 973d 2a73 00be 20fe f2bc
00000160: 0fc0 463c 9139 36be b8ef bcbc ba82 06be
00000170: 1168 233e 848f 81be edc1 36be 8d91 e43d
00000180: f307 c0bd d724 2d3e 40ac 09bd 7a66 b8bd
00000190: 0c86 503e 2a33 c83e 4f80 1a3d 8082 c63d
000001a0: 22df c83d 26e0 6bbd 4435 71bd 23bb 073e
000001b0: 4aa0 b5bc 31c9 7dbd 25cb 943d 9a1c 30be
000001c0: 70e0 e33d 8648 fe3d 2156 2cbe ec16 063e
000001d0: 1c16 fdbd 1446 ff3d 96d6 afbd fa04 5d3d
000001e0: cd8d 7abc ad91 e5bd eb5a 60bd 0f8e 00bd
000001f0: 28c7 083e 8988 a6bd 7992 82bd 44f0 febd
00000200: ad34 713d 14e3 353e cfd0 e1bd 9b29 323d
00000210: bb02 b4bb cffe 183c 9f86 85bd 220f 0abe
00000220: cd85 c6bc aeb7 a7bc 3caf 97bd ec38 873d
00000230: 324f 44be 9945 313e 23d4 573c 42b1 063e
00000240: fa5d f2bd 208e de3d ca89 fcbd 2094 d33d
00000250: ec16 213e 060f 2fbe 0e3a 45bc 6115 f63c
00000260: 680c 203d 4761 dd3d 3b54 d9bd 5ffe 41be
00000270: 4b4c 3a37 09cb ea3e 820e 033e 2907 923c
00000280: b58f a4bd 32c4 d53c 824f 763d 435a 273e
00000290: 932d 0b3d df00 e7bd 5295 12be b393 393e
000002a0: b563 6c3d eb81 b43d 65c7 77bd b367 05be
000002b0: 19b8 933c a5da 343d 589d 323d aa60 9bbe
000002c0: a901 d53d e47b 303d af1b e03d feca e43d
000002d0: ed0d b13d ce58 133b 4568 8b3c d5c5 81bd
000002e0: 7322 b1be f686 1c3e eef8 823c c021 f43d
000002f0: f807 7b3c f2a4 c3bd 9f5c 9a3d 3874 afbc
-0.013189908 -0.19421127 -0.13804626 -0.10129473 -0.09042091 0.018670475 -0.034817744 0.09687172
-0.016919354 -0.14750329 -0.036464952 0.17859142 0.1532982 -0.18097295 0.09798856 0.10047224
-0.102021866 0.019380964 0.02270217 0.13162008 -0.17118096 -0.07082277 0.102938026 0.16674192
-0.0035619214 0.11455342 -0.15465918 0.17530507 -0.08906248 -0.4886036 0.02357137 0.11114184
0.0669352 -0.0861204 -0.021781908 -0.045646112 -0.10245683 -0.3517688 0.16682693 -0.106280975
0.08209283 0.00823339 0.17044732 -0.0909094 0.059187725 -0.077957444 -0.041882105 0.6437804
-0.14448962 0.11813697 0.01908898 -0.112678245 -0.16703191 0.051728234 -0.03570321 0.11746289
0.13705617 -0.03817685 -0.06380503 -0.037682436 -0.045338396 -0.082650684 0.050406598 -0.108560756
-0.051555242 -0.16780922 0.062081464 -0.024312163 -0.15610085 -0.0921857 0.03745344 -0.1701783
-0.010206757 0.33841753 -0.006419427 -0.06984001 -0.106287226 -0.11665532 0.004971577 -0.15365455
-0.022531165 -0.18060084 -0.15004438 -0.15193856 -0.087089606 0.074198425 -0.12543932 -0.029662192
0.012130751 -0.17795397 -0.023063526 -0.13135806 0.15957667 -0.25304806 -0.17847414 0.11160574
-0.09376516 0.16908585 -0.033611536 -0.09003921 0.20363635 0.39101535 0.03772002 0.0969286
0.09808184 -0.05758681 -0.05888869 0.1325498 -0.022171158 -0.06195945 0.07265309 -0.1719841
0.111267924 0.124161765 -0.1682973 0.13094682 -0.12357733 0.12464538 -0.08585851 0.053959824
-0.015292597 -0.11209426 -0.054774206 -0.031385478 0.13357222 -0.08131511 -0.06375594 -0.12448171
0.058888126 0.17762405 -0.11026155 0.04349671 -0.0054934896 0.009338095 -0.065198176 -0.13482335
-0.024233723 -0.020473327 -0.0740647 0.06602654 -0.19170836 0.17311706 0.013173136 0.13153556
-0.11834331 0.10866952 -0.12330969 0.10330987 0.157314 -0.17095575 -0.012037767 0.030039491
0.03907433 0.1080957 -0.10611769 -0.18944691 1.1104227e-05 0.4585803 0.12798503 0.01782568
-0.080352224 0.02609453 0.06013442 0.16343026 0.03397901 -0.11279463 -0.14314774 0.18122749
0.057712276 0.088138424 -0.06049289 -0.1302784 0.01803212 0.04415383 0.043607086 -0.30347186
0.10400707 0.0430869 0.1094278 0.1117153 0.08645234 0.0022483352 0.017017493 -0.063365616
-0.34596595 0.15285859 0.01598784 0.119205 0.015321724 -0.09552945 0.07537197 -0.021417722

color_head.bias f4 [3]
00000000: d3c5 ef3a 878a e53d 0d61 8a3d
0.0018293209 0.112080626 0.06756792
