embedding_cnn.pth (torch, 99528 bytes, 8 tensors)

conv_layers.0.weight f4 [16, 3, 3, 3]
0	0xbc678382	-0.014130475
1	0xbdc9304f	-0.09823667
2	0x3e2af61b	0.16695444
3	0x3e469605	0.19393165
4	0xbc8799b2	-0.01655278
5	0x3e4064c6	0.18788442
6	0xbd5cc5ab	-0.05389945
7	0x3e046300	0.1292839
8	0x3ce2a41d	0.027666146
9	0xbe25efb8	-0.16204727
10	0x3e628bb0	0.22123599
11	0xbd724b76	-0.059153996
12	0xbd278f5f	-0.040908214
13	0x3dfb95a6	0.122844025
14	0xbbd72dc6	-0.006566736
15	0xbd6cdd52	-0.057828255
16	0x3d1f8de5	0.03895368
17	0x3e1979bb	0.14987843
18	0xbec75e97	-0.38939354
19	0xbdca6ef5	-0.098844446
20	0x3cd12764	0.025531478
21	0xbec875ad	-0.3915228
22	0xbe69e77e	-0.22842214
23	0x3dac07ef	0.08399951
24	0xbe850f8b	-0.2598842
25	0xbc3ced91	-0.01153125
26	0xbe80d4c6	-0.25162333
27	0x3e254cd0	0.16142583
28	0xbe03488d	-0.12820645
29	0x3e18be77	0.14916407
30	0xbd8e90c9	-0.06961209
31	0x3dc74f90	0.09731972
32	0x3db4be99	0.08825416
33	0x3de9b07a	0.11410613
34	0xbc2b14b8	-0.010441951
35	0x3e1cca7d	0.15311618
36	0xbdeebeff	-0.11657523
37	0x3e76e598	0.2411102
38	0x3e700593	0.23439626
39	0x3dbf87af	0.093520515
40	0x3e20286a	0.15640417
41	0x3e16b310	0.14716744
42	0x3e448c45	0.19194134
43	0x3e4be616	0.1991199
44	0x3e4ef70d	0.2021143
45	0x3e20d773	0.15707187
46	0xbe0e635d	-0.13905092
47	0xbdfafb2d	-0.12254939
48	0xbd93b739	-0.07212681
49	0x3e297a11	0.16550471
50	0xbdfb837e	-0.122809395
51	0xbe099f1a	-0.13439599
52	0xbc5a74bb	-0.013333495
53	0xbd401a50	-0.046900094
54	0xbe2d3125	-0.16913278
55	0xbe2d55e2	-0.16927293
56	0x3c134c19	0.008990311
57	0xbe2fa097	-0.17151104
58	0xbc8dc9d0	-0.017308146
59	0x3e36e3ac	0.17860287
60	0xbe0330c5	-0.12811573
61	0x3d53b601	0.051687244
62	0xbdb24477	-0.08704465
63	0xbcea7d57	-0.02862422
64	0x3e0ff82e	0.14059517
65	0xbd1e5838	-0.03865835
66	0xbde05a71	-0.1095475
67	0x3df3abb1	0.11897982
68	0x3c85c966	0.016331386
69	0x3dcd17fe	0.10014342
70	0x3e5f853f	0.21828173
71	0x3e5dc5d5	0.21657498
72	0xbe945508	-0.28971124
73	0xbe112785	-0.14175232
74	0x3e241fc7	0.16027747
75	0xbd260089	-0.040527854
76	0xbde47c17	-0.11156481
77	0x3e585896	0.21127543
78	0xbdd41760	-0.10356021
79	0x3d86eabd	0.065877415
80	0xbccfba6c	-0.025357448
81	0xbd4dcedd	-0.05024611
82	0xbd600cca	-0.054699697
83	0xbd597f14	-0.053099707
84	0x3e843c03	0.25827035
85	0x3cbc5c29	0.022993164
86	0x3d7c91f4	0.06166263
87	0x3e1f5df8	0.1556319
88	0xbdad6173	-0.084658526
89	0xbd701973	-0.05861802
90	0x3e3421a6	0.17590961
91	0x3e3db2e1	0.18525268
92	0x3ddef736	0.108869955
93	0x3e54a2f1	0.20765282
94	0xbdae8ef4	-0.0852336
95	0x3e23be4b	0.1599056
96	0x3e904d56	0.28184003
97	0x3d0956aa	0.033529915
98	0x3dd44779	0.10365195
99	0xbdd2f9d3	-0.103015564
100	0xbc895a34	-0.016766645
101	0xbd165398	-0.036700815
102	0x3dfc65da	0.12324114
103	0x3e5588fd	0.20853038
104	0xbd05860c	-0.03259854
105	0x3e2ee5c5	0.17079838
106	0xbd384037	-0.044983115
107	0x3d72e401	0.059299473
108	0xbe8c62db	-0.2741917
109	0xbd672f59	-0.05644164
110	0x3db88f9c	0.09011766
111	0xbbe32dea	-0.0069329636
112	0xbe314fbc	-0.17315573
113	0x3e2516d7	0.16121994
114	0x3d9be0f8	0.07611269
115	0xbd43120d	-0.047624636
116	0xbe894ea4	-0.2681781
117	0xbe38adef	-0.180351
118	0x3d1e5bcf	0.038661774
119	0x3e01743c	0.12641996
120	0x3e14c794	0.14529258
121	0x3c61fbfa	0.013792986
122	0x3df592c7	0.11990886
123	0x3e5c4093	0.21509008
124	0xbc585d69	-0.0132058645
125	0xbc8e4572	-0.017367098
126	0xbd846e8c	-0.06466398
127	0xbe3154b2	-0.17317465
128	0xbe01d30d	-0.12678166
129	0xbe023c5d	-0.1271834
130	0x3e338cb9	0.1753415
131	0x3d863fec	0.06555161
132	0x3e562919	0.20914115
133	0xbb00b2f9	-0.0019637926
134	0xbd1043cf	-0.035220917
135	0xbe04f22c	-0.12983006
136	0x3e5704e6	0.20997962
137	0x3dc25238	0.09488338
138	0xbbb69813	-0.005572328
139	0xbe006a2c	-0.12540501
140	0x3d5ee9fc	0.054422364
141	0xbdd47745	-0.10374311
142	0x3c42aa73	0.011881459
143	0x3e14f4a5	0.1454645
144	0xbdc2876a	-0.094984844
145	0x3e61efcf	0.22064136
146	0x3e36a260	0.17835379
147	0x3e1e5c63	0.1546493
148	0xbd18fe6e	-0.037352018
149	0x3d872953	0.06599679
150	0xbc046049	-0.008079597
151	0xbd426f2d	-0.047469307
152	0x3dd37c6e	0.103264675
153	0x3e5f724b	0.21820943
154	0x3e59a0f5	0.21252806
155	0x3e8a7384	0.27041256
156	0x3e58955d	0.21150728
157	0x3e6c578a	0.23080269
158	0x3e0eebee	0.13957188
159	0x3e581d0b	0.21104829
160	0x3ca07cfe	0.01959085
161	0x3e699b5d	0.22813173
162	0xbdb23b41	-0.08702708
163	0xbebbe60d	-0.36698952
164	0xbe7c1443	-0.24617104
165	0xbea313cc	-0.3185104
166	0xbe872265	-0.26393428
167	0xbe061e4c	-0.13097495
168	0xbe758c5b	-0.23979323
169	0x3d787014	0.06065376
170	0xbe869fa0	-0.2629366
171	0x3df4f800	0.11961365
172	0xbdb53797	-0.088484935
173	0xbccc4ad1	-0.024938019
174	0x3e1669f5	0.14688857
175	0x3e17e7dd	0.14834543
176	0xbd38289a	-0.044960596
177	0xbdef95f4	-0.11698523
178	0x3e18ae55	0.14910252
179	0x3d4a9cec	0.04946606
180	0x3dddfccc	0.10839233
181	0x3e6bf070	0.23040938
182	0x3dc7f14e	0.09762822
183	0x3d656eff	0.056014057
184	0x3e640d53	0.22270708
185	0x3e1adfd1	0.15124442
186	0x3cc8e351	0.024522455
187	0x3d89935d	0.067175604
188	0xbd49e950	-0.04929477
189	0xbcda5433	-0.026651477
190	0x3e12cbf4	0.14335614
191	0x3d3caaa2	0.046061166
192	0x3e320d95	0.17387994
193	0x3bc3e9d8	0.005978804
194	0x3e83c85e	0.25738806
195	0x3d97c3d9	0.07410402
196	0x3e39f6e6	0.1816059
197	0x3e734b03	0.23759083
198	0x3ccfe043	0.025375491
199	0x3e08debc	0.13366216
200	0x3b774bb9	0.0037734343
201	0x3e1659ed	0.14682741
202	0xbccd15cd	-0.02503481
203	0x3e4cd22e	0.20002052
204	0xbd90f001	-0.07077027
205	0x3e454094	0.19262916
206	0x3de65816	0.1124727
207	0x3e063904	0.13107687
208	0x3e37cf5f	0.179502
209	0xbdc343b4	-0.09534398
210	0x3da1549f	0.07877468
211	0x3ca958e9	0.020672278
212	0xbd1defb6	-0.038558684
213	0x3d0ffddc	0.03515421
214	0xbca49377	-0.020089848
215	0xbe2154e0	-0.15755033
216	0x3d1e7f21	0.03869546
217	0x3cc9c840	0.02463162
218	0xbd78ec08	-0.060771972
219	0xbe197421	-0.14985706
220	0xbe60faef	-0.21970724
221	0xbe7c9a0f	-0.24668144
222	0xbc48aab9	-0.012247735
223	0x3d8d8c39	0.06911511
224	0x3d83bfa0	0.06433034
225	0xbd1d2438	-0.03836462
226	0x3df90a4e	0.121601686
227	0x3e5938c4	0.2121306
228	0x3e4a800c	0.19775409
229	0x3d1abd78	0.037778348
230	0xbd66b723	-0.056326997
231	0x3e6591a6	0.22418842
232	0xbdd86508	-0.10566145
233	0x3e5e49fa	0.21707907
234	0x3dc4ae11	0.09603513
235	0x3d1af610	0.03783232
236	0xbe4e4f3b	-0.20147412
237	0x3d872d40	0.06600428
238	0x3d09f571	0.033681337
239	0xbe9d142e	-0.30679458
240	0x3bee0696	0.0072639687
241	0xbe780bce	-0.24223253
242	0xbe3e4c32	-0.18583754
243	0xbe964cb2	-0.2935539
244	0xbea79933	-0.3273407
245	0xbe36cec4	-0.17852312
246	0x3dd5149c	0.104043216
247	0xbe2d9581	-0.16951562
248	0x3c6db86e	0.0145093035
249	0xbd871208	-0.06595236
250	0x3e379b0e	0.17930242
251	0xbdf415a2	-0.11918189
252	0xbe1eda01	-0.1551285
253	0xbe0e861c	-0.13918346
254	0x3d8f72d4	0.070043236
255	0x3e326bf4	0.17423993

conv_layers.0.bias f4 [16]
0	0x3e8c0693	0.27348766
1	0x3e874139	0.26416948
2	0x3d5970b6	0.053086005
3	0xbe51ead1	-0.20499732
4	0x3dfab2dd	0.12241147
5	0xbe511e71	-0.20421769
6	0x3dea5a86	0.11443047
7	0xbdec59f2	-0.11540593
8	0xbdd9a684	-0.106274635
9	0x3e71360a	0.2355577
10	0x3d5a56ea	0.053305544
11	0xbd9ff9e6	-0.07811336
12	0xbddb8cc6	-0.1072021
13	0xbddd61fc	-0.10809705
14	0xbd8c0bc5	-0.06838182
15	0xbe3b8cbd	-0.18315406

conv_layers.3.weight f4 [32, 16, 3, 3]
0	0xbe8d9592	-0.27653176
1	0xbe47ad49	-0.19499697
2	0xbea89223	-0.32923993
3	0xbd7f9db3	-0.062406253
4	0xbe85e5a1	-0.26151755
5	0xbeba349a	-0.36368257
6	0xbe097ceb	-0.13426559
7	0xbdc95e7a	-0.09832473
8	0xbd787e5c	-0.06066738
9	0x3e166d33	0.14690094
10	0x3df18f75	0.117949404
11	0x3d811e60	0.06304622
12	0xbbcf9da5	-0.0063359314
13	0x3e04e95c	0.12979645
14	0x3dfafeda	0.1225564
15	0x3d8cf4c7	0.06882625
16	0x3d10f164	0.035386458
17	0x3d25c86b	0.040474337
18	0xbe3049c5	-0.17215641
19	0x3bcd9a27	0.00627448
20	0xbc483bcd	-0.012221289
21	0xbe2d47de	-0.16921946
22	0xbddbf4a2	-0.107400194
23	0xbd100c5e	-0.035168044
24	0xbdc3ed65	-0.09566764
25	0x3d12e661	0.035864238
26	0x3c1ba7f0	0.009500489
27	0x3e0fd5cd	0.14046402
28	0x3ddc13e9	0.10745985
29	0x3e4332fa	0.19062415
30	0x3d8e3595	0.06943814
31	0x3cf28b2b	0.029607376
32	0x3e26c673	0.1628664
33	0x3ccb1645	0.024790892
34	0xbd130a17	-0.035898294
35	0x3db40273	0.0878953
36	0xbde5ed57	-0.112269096
37	0xbdf85868	-0.12126237
38	0xbe34c0bd	-0.17651649
39	0xbe26f1c0	-0.16303158
40	0xbe930909	-0.2871783
41	0xbe984231	-0.29738
42	0x3b62c450	0.0034601875
43	0xbe5acdc0	-0.2136755
44	0xbe9474b7	-0.28995296
45	0x3d66e281	0.056368355
46	0x3e274b50	0.16337323
47	0x3dc8e59b	0.09809419
48	0x3d039cae	0.032131843
49	0x3d9ae042	0.07562305
50	0x3dfcfc7e	0.123528466
51	0x3dc3268c	0.095288366
52	0x3cdc2f3d	0.026877994
53	0x3d6bc0ee	0.05755704
54	0xbdf252f7	-0.118322305
55	0xbe059d19	-0.13048209
56	0xbda90f5d	-0.082548834
57	0xbde33f31	-0.11096037
58	0xbe2a3fba	-0.16625872
59	0xbd907fda	-0.07055636
60	0xbc301ab2	-0.010748552
61	0xbcec7d94	-0.028868474
62	0x3b4f9908	0.0031676907
63	0x3d81f995	0.06346432
64	0x3e0b0d74	0.1357935
65	0x3c8c02ce	0.017091181
66	0x3df3671a	0.118848994
67	0x3d001007	0.031265285
68	0x3da8a7dc	0.08235142
69	0x3d0d5836	0.034507953
70	0x3d823eda	0.06359644
71	0x3d5614df	0.052265998
72	0xbe869b0a	-0.2629016
73	0xbea3b1f7	-0.31971714
74	0xbd8b4f0e	-0.06802188
75	0xbe67fc6f	-0.2265489
76	0xbeb29ea5	-0.3488666
77	0xbdec5930	-0.11540449
78	0xbe0da305	-0.13831718
79	0xbc02eaee	-0.007990582
80	0xbdc81684	-0.097699195
81	0xbca4d8d0	-0.020122916
82	0xbd51f06e	-0.051254682
83	0xbe221664	-0.15828854
84	0xbe5fcfa1	-0.21856548
85	0xbe963b6d	-0.29342213
86	0xbeaa608e	-0.3327679
87	0xbc9bd11f	-0.019020615
88	0xbe7dfe29	-0.24803986
89	0xbe8cc0e6	-0.2749092
90	0x3d9d36a0	0.076764345
91	0x3df1ce48	0.11806923
92	0x3da10d30	0.078638434
93	0x3dc758ca	0.09733732
94	0x3dac1801	0.08403016
95	0x3ddad612	0.10685362
96	0xbc079dbd	-0.008277354
97	0x3dc50f70	0.09622085
98	0x3dfc0d42	0.12307216
99	0x3ce3748a	0.027765531
100	0x3cd5bc24	0.026090689
101	0x3e15a284	0.14612776
102	0x3d8a1530	0.067423224
103	0x39f4a13d	0.00046659439
104	0x3d03ea8f	0.032206114
105	0xbd415c6c	-0.04720728
106	0x3d82092a	0.06349404
107	0x3da60684	0.081067115
108	0xbe502ed3	-0.20330362
109	0x3c60c39c	0.013718512
110	0x3e8cf503	0.2753068
111	0xbe782677	-0.24233423
112	0x3d989422	0.07450129
113	0x3e7f801a	0.2495121
114	0xbe6f7968	-0.23386157
115	0xbc90a8b6	-0.017658573
116	0x3e858846	0.2608053
117	0xbdfea58a	-0.12433918
118	0xbebb1aaa	-0.3654378
119	0xbe84c091	-0.25928167
120	0xbe4f6090	-0.2025168
121	0xbea738e7	-0.326606
122	0xbe3a6c12	-0.18205288
123	0xbd9a4944	-0.075335056
124	0xbdd93159	-0.106051154
125	0xbd73a6f2	-0.059485383
126	0xbe4700a0	-0.19433832
127	0xbeb127cf	-0.34600684
128	0xbe910342	-0.28322798
129	0xbe1c0cde	-0.15239283
130	0xbe8f9a80	-0.28047562
131	0xbe75e3db	-0.24012701
132	0x3d09dcaf	0.033657726
133	0xbe5016ad	-0.2032115
134	0xbe238354	-0.15968066
135	0xbd35dc04	-0.044399276
136	0x3deac814	0.11463943
137	0x3d8c5ba6	0.06853418
138	0x3c363127	0.011120117
139	0x3d3d33b2	0.04619188
140	0x3dcd3420	0.10019708
141	0x3d8e1d6c	0.069392055
142	0x3dcb24cf	0.0991913
143	0x3d97166f	0.07377326
144	0x3cb9b37e	0.022668596
145	0x3d9c9a90	0.07646668
146	0x3d921840	0.071335316
147	0x3e11f32f	0.14252923
148	0xbc8f2e80	-0.017478228
149	0x3d819204	0.063266784
150	0x3d16229e	0.036654107
151	0x3dd4cca0	0.103905916
152	0x3d7ff6a2	0.062491067
153	0x3d3aa10c	0.045563743
154	0xbd6e9ffc	-0.05825804
155	0x3d87eccc	0.06636962
156	0x3d43819e	0.047731034
157	0x3db0e210	0.08636868
158	0xbd0a1098	-0.03370723
159	0x3dbd696c	0.09248623
160	0xbcf44644	-0.029818662
161	0x3d9a3421	0.07529474
162	0xbc75cc35	-0.0150023
163	0xbca4de11	-0.02012542
164	0xbe0fa687	-0.14028369
165	0x3d317199	0.043321226
166	0xbde5a487	-0.11213022
167	0xbe1e70d8	-0.15472734
168	0x3d85dced	0.06536279
169	0xbd8ba4d5	-0.068185486
170	0xbddb2b5b	-0.10701629
171	0x3b5ba4c7	0.0033514963
172	0xbd71af4c	-0.059005067
173	0xbdd06309	-0.101751395
174	0xbbce8f2c	-0.0063036885
175	0xbe0bb0fa	-0.1364173
176	0xbd700cba	-0.058605887
177	0xbdd1acbe	-0.10238026
178	0xbbfbff16	-0.0076903207
179	0xbe0c78d3	-0.13717966
180	0xbe044a7a	-0.12919036
181	0xbdc344e3	-0.095346235
182	0xbc8225ae	-0.015887108
183	0xbd8ed2ed	-0.06973825
184	0xbd361a65	-0.044458766
185	0x3ac2b110	0.0014853794
186	0xbe0341c6	-0.1281806
187	0xbe1c4603	-0.15261082
188	0xbdc3deaa	-0.09563954
189	0xbe1eae54	-0.15496188
190	0xbdebb5c4	-0.115092784
191	0xbe3961a2	-0.1810365
192	0xbdae8fe6	-0.0852354
193	0xbdfbcf7e	-0.12295435
194	0xbd491c97	-0.04909953
195	0xbe05eb29	-0.13077988
196	0xbd9aaa41	-0.075520046
197	0xbc97952a	-0.018503744
198	0xbdccbb15	-0.099966206
199	0xbd74f136	-0.05980035
200	0xbcc67436	-0.024225336
201	0x3d4fc4d8	0.050724834
202	0xbd8afedc	-0.06786892
203	0xbc47d5d1	-0.012196974
204	0xbddd0077	-0.10791104
205	0xbd8bd631	-0.06827963
206	0xbd78ac98	-0.060711473
207	0x3ddcc6ac	0.10780081
208	0x3dcbef1e	0.09957717
209	0x3b6e3a1c	0.0036350554
210	0x3e035598	0.1282562
211	0x3bb4f959	0.0055228886
212	0x3ca5510f	0.020180253
213	0x3d7b574e	0.061362557
214	0x3d2366fd	0.03989314
215	0x3dda9d4e	0.10674535
216	0x3da12f62	0.07870366
217	0x3d10ab41	0.03531957
218	0xbd26459c	-0.04059373
219	0xbdb11f7b	-0.086485825
220	0xbe120e5f	-0.14263295
221	0x3d877a84	0.06615165
222	0xbe88f455	-0.2674891
223	0xbd8b01cb	-0.06787451
224	0xbd3dae8d	-0.046309043
225	0xbddecefc	-0.10879323
226	0xbd9268a2	-0.071488634
227	0xbda9abd8	-0.0828473
228	0xbc8139a7	-0.015774561
229	0xbd784a47	-0.06061771
230	0xbd2b7ef8	-0.041869134
231	0xbdd30e69	-0.10305483
232	0xbdef08ca	-0.11671598
233	0x3cbd1e34	0.023085691
234	0xbdf5265b	-0.11970206
235	0x3cc0f59b	0.023554614
236	0xbd1f1b76	-0.03884455
237	0xbd669ab3	-0.056299876
238	0xbce68ba6	-0.028142761
239	0xbdae0754	-0.084974915
240	0xbda0db06	-0.078542754
241	0xbda1a75d	-0.0789325
242	0xbe0f9d78	-0.14024913
243	0x3cce6f47	0.025199546
244	0xbdf085bc	-0.11744258
245	0xbc447e1c	-0.011992957
246	0xbc7a7886	-0.015287524
247	0xbc3f8c08	-0.011691101
248	0x3cfab0b7	0.030601842
249	0x3d0375d4	0.03209479
250	0xbd9b6f39	-0.075895734
251	0xbd9a8c20	-0.07546258
252	0xbd5eaef6	-0.054366075
253	0x3d038f6e	0.032119207
254	0x3a4789bd	0.0007611772
255	0x3cd365df	0.025805412

conv_layers.3.bias f4 [32]
0	0xbcf9407d	-0.030426258
1	0x3db3603a	0.08758588
2	0x3c3ceb55	0.011530717
3	0xbc9b8ead	-0.018988932
4	0x3da72e23	0.08163097
5	0xbbc33a75	-0.0059578964
6	0x3db5f410	0.08884442
7	0x3d616435	0.055027205
8	0x3d8303b8	0.06397194
9	0x3dc9d441	0.09854937
10	0x3d5c359f	0.053762075
11	0x3d97b528	0.074076
12	0x3d29edff	0.041486736
13	0x3d829eb7	0.06377929
14	0x3df35bcb	0.118827425
15	0x3d3a2d9f	0.045453664
16	0x3d3f1108	0.0466471
17	0x3d4f44e7	0.05060282
18	0xbd1e8a05	-0.038705844
19	0xbd248bbc	-0.040172324
20	0x3da056d3	0.078290604
21	0x3d46adcd	0.048505593
22	0x3df0fae4	0.117666036
23	0xbc41c7c1	-0.01182741
24	0x3e0c26df	0.13686703
25	0x3d1b7fc1	0.037963632
26	0x3d9bb06b	0.076020084
27	0x3d9a26a3	0.075269006
28	0x3d398453	0.04529221
29	0x3e07e150	0.13269544
30	0x3de30425	0.11084775
31	0x3d6f2306	0.05838301

conv_layers.6.weight f4 [64, 32, 3, 3]
0	0xbcd1c67e	-0.025607344
1	0x3c9df302	0.019280914
2	0x3c9ff09a	0.019523907
3	0xbcc4fd64	-0.024046607
4	0x3cdb7a27	0.026791645
5	0xbd677523	-0.056508195
6	0xbdb973a6	-0.09055261
7	0xbdb34cb9	-0.08754868
8	0x3bf8f8b8	0.007598009
9	0x3c73dbc4	0.014883939
10	0x3d029705	0.031882305
11	0xbd7a0d46	-0.061047815
12	0xbc7f4c24	-0.015582118
13	0xbd20a185	-0.039216537
14	0xbd5d3fc4	-0.05401589
15	0xbda2e30f	-0.07953464
16	0xbd839726	-0.06425314
17	0xbd7ce825	-0.061744828
18	0x3b4acbb7	0.0030944177
19	0xbcd0e340	-0.025498986
20	0xbcff4d01	-0.031164648
21	0xbd0a9008	-0.033828765
22	0xbd1dfb2b	-0.03856961
23	0xbdac024c	-0.083988756
24	0xbd9fa67c	-0.07795426
25	0xbd7d7226	-0.06187644
26	0xbd60fd94	-0.05492933
27	0xbd8b5583	-0.068034194
28	0x3cb7ec13	0.022451436
29	0x3c443f7f	0.011978029
30	0x3ca7025e	0.020386871
31	0x3c291247	0.010319299
32	0xbda6f5c9	-0.081523485
33	0xbcf4fc98	-0.029905602
34	0xbc907efe	-0.01763868
35	0xbd86d8de	-0.06584333
36	0xbd1792eb	-0.037005346
37	0xbdc4be49	-0.096066065
38	0xbdaa5beb	-0.08318313
39	0x3ceb7fde	0.028747495
40	0xbe25dc1e	-0.1619725
41	0xbd681f11	-0.056670252
42	0x3bc2738d	0.005934185
43	0xbc807078	-0.01567863
44	0xbd4301ad	-0.04760902
45	0xbcb0126d	-0.021493161
46	0x3d95af9b	0.07308885
47	0x3b1d702c	0.0024023158
48	0xbca2786e	-0.019832816
49	0xbe18ddd9	-0.14928378
50	0xbd427262	-0.047472365
51	0xbd93dfaf	-0.07220399
52	0xbe07ee36	-0.13274464
53	0x3d41a24c	0.04727392
54	0x3e1a2384	0.1505261
55	0x3df42ab7	0.1192221
56	0xbede4083	-0.43408594
57	0x3da1ada0	0.078944445
58	0x3eb6b83f	0.35687444
59	0xbea19eb0	-0.3156638
60	0xbf09a326	-0.5376457
61	0xbed019b8	-0.40644622
62	0xbd42061e	-0.047369115
63	0x3ca01c94	0.019544877
64	0xbd48d629	-0.049032364
65	0x3d1fbb81	0.038997177
66	0xbd21ec9a	-0.03953228
67	0x3bdcbbee	0.00673627
68	0xbda02ab6	-0.078206465
69	0x3ce1128d	0.027474666
70	0xbc3116ed	-0.010808689
71	0xbcde8a20	-0.027165473
72	0x3c360e37	0.0111117875
73	0xbc86a4e4	-0.016436048
74	0xbd816027	-0.06317168
75	0x3c3c206e	0.011482341
76	0xbcae1e78	-0.021254763
77	0xbdc77955	-0.09739939
78	0xbdb219f6	-0.08696358
79	0xbd10b102	-0.035325058
80	0xbcfaa9ac	-0.030598484
81	0x3e3934ff	0.18086623
82	0x3e0193ce	0.1265404
83	0xbebf5672	-0.3737064
84	0x3ce75f8b	0.0282438
85	0x3ecc3bc4	0.39889348
86	0xbee4d0d5	-0.44690576
87	0xbee6c5cd	-0.45072785
88	0xbeaff301	-0.34365085
89	0xbd0a7ac2	-0.033808477
90	0xbd17b696	-0.037039362
91	0xbd503473	-0.05083127
92	0xbcd8c1c9	-0.026459591
93	0x3b02eea3	0.0019978664
94	0x3b5d6efe	0.003378808
95	0xbd3b8841	-0.04578424
96	0xbdf742bd	-0.12073276
97	0xbcfeb9f7	-0.031094534
98	0xbdca9186	-0.09891038
99	0xbd3653b7	-0.04451343
100	0xbbeba53d	-0.007191329
101	0xbcdf8ddd	-0.027289325
102	0x3c331379	0.010929936
103	0xbdb1933c	-0.08670661
104	0xbdc74f3e	-0.09731911
105	0xbcc48570	-0.02398941
106	0xbda67236	-0.08127253
107	0x3d032914	0.032021597
108	0xbbf853ac	-0.007578334
109	0xbde04afc	-0.10951802
110	0xbaa8fc76	-0.0012892622
111	0xbc0eb07f	-0.008709072
112	0xbde588e3	-0.1120775
113	0xbcb353cf	-0.021890549
114	0xbdaff29a	-0.085911945
115	0xbd9cb82b	-0.07652315
116	0x3c7a5d70	0.015281066
117	0xbc2c19eb	-0.010504226
118	0xbcd5886d	-0.02606603
119	0x3b980829	0.0046396446
120	0xbda4c91d	-0.08046172
121	0x3ccc1905	0.024914274
122	0xbd807c59	-0.062737174
123	0xbd315ad8	-0.043299526
124	0xbd504ef3	-0.05085654
125	0xbc41e821	-0.011835129
126	0x3d817648	0.063213885
127	0xbcc09d15	-0.023512403
128	0xbde0544b	-0.109535776
129	0x3ade83a3	0.0016976487
130	0x3ce66def	0.028128592
131	0xbd455d22	-0.04818452
132	0xbd46778c	-0.048453853
133	0xbde88fc5	-0.11355547
134	0xbcd088d1	-0.025455864
135	0x3d1ff006	0.039047264
136	0xbd39ae7d	-0.04533242
137	0x3d7fab29	0.06241909
138	0xbcfbbbdf	-0.030729232
139	0xbd49b541	-0.049245123
140	0xb934bf14	-0.0001723732
141	0xbd81f93e	-0.06346367
142	0x3c2b1537	0.01044207
143	0x3d5c1e7b	0.053740006
144	0xbd93d4d9	-0.07218332
145	0xbd347959	-0.04406104
146	0xbdc75f94	-0.09735027
147	0x3d3487a2	0.044074662
148	0xbd3b7438	-0.04576513
149	0xbdc07687	-0.09397607
150	0xbde06668	-0.109570324
151	0xbd986d3b	-0.07442709
152	0xbd8fb7ea	-0.07017501
153	0x3dd135e2	0.102153555
154	0x3df32b60	0.118735075
155	0xbdce72dc	-0.100805014
156	0x3dea2905	0.11433605
157	0x3e1ed0ff	0.15509413
158	0xbdfb81b8	-0.12280601
159	0xbe14ada5	-0.14519365
160	0xbe2d2a35	-0.16910632
161	0xbcaca447	-0.021074427
162	0x3e26e587	0.16298495
163	0x3d450d47	0.048108365
164	0xbeb429ee	-0.3518824
165	0x3cda634d	0.026658678
166	0x3ea864e3	0.3288947
167	0xbe6b26cc	-0.22964019
168	0xbe98200c	-0.2971195
169	0xbd2fef44	-0.04295279
170	0x3cb412d0	0.021981627
171	0xbd174d32	-0.036938854
172	0xbd320107	-0.04345801
173	0x3b50faec	0.0031887842
174	0xbd77762c	-0.06041543
175	0xbd128f16	-0.03578099
176	0xbd1c2a18	-0.03812608
177	0x3c7ebea2	0.01554838
178	0x3c0a99cd	0.0084595205
179	0x3d418f97	0.04725608
180	0xbd0f7c5f	-0.03503072
181	0x3d7bc484	0.06146671
182	0xbd132b04	-0.035929695
183	0xbca9d4c5	-0.02073134
184	0x3d8b476c	0.06800732
185	0xbbc3c7b2	-0.0059747333
186	0xbe064afe	-0.13114545
187	0xbe0408f3	-0.12894039
188	0x3ac7dd19	0.0015248387
189	0x3e0ab408	0.13545239
190	0x3def2574	0.116770655
191	0xbeb9af4c	-0.36266553
192	0x3c7bf22d	0.015377563
193	0x3e37fefd	0.17968364
194	0xbe86331a	-0.26210862
195	0xbe7104c1	-0.2353697
196	0xbd6fb2a3	-0.05851997
197	0xbd500e71	-0.050795022
198	0x3df9238e	0.12164985
199	0x3e2ae246	0.16687879
200	0xbe2fba8b	-0.17161004
201	0x3cc34b25	0.023839543
202	0x3e1b0e80	0.1514225
203	0xbe32e266	-0.17469177
204	0xbe929e45	-0.28636375
205	0xbe675ae8	-0.22593272
206	0xbdcd1ba5	-0.100150384
207	0xbcae53f6	-0.02128027
208	0xbd7e89dd	-0.062143195
209	0xbdd07090	-0.101777196
210	0x3e21f160	0.15814734
211	0x3d20a9f9	0.0392246
212	0xbdb48de3	-0.08816125
213	0xbd4ae009	-0.049530063
214	0xbdca03de	-0.09864019
215	0xbd8a2fc0	-0.06747389
216	0x3d8afce1	0.06786514
217	0x3c699e40	0.014258921
218	0xbd219453	-0.039448094
219	0xbc35abbb	-0.011088307
220	0x3d24a514	0.040196493
221	0xbdc55714	-0.096357495
222	0xbdf0f359	-0.11765165
223	0xbd3b705f	-0.045761462
224	0xbcfdb003	-0.030967718
225	0x3c1fc0d4	0.009750564
226	0x3dd20247	0.102543406
227	0xbc9d5545	-0.019205699
228	0x3b1e0abe	0.002411529
229	0x3dbecf05	0.093168296
230	0xbd9d9393	-0.07694163
231	0xbca4442e	-0.020052042
232	0xbdd626fe	-0.10456656
233	0xbc073b23	-0.008253845
234	0xbd953ee6	-0.072873875
235	0x3d61c584	0.055120006
236	0x3c0effed	0.00872801
237	0x3c5aa363	0.0133446185
238	0xbdb7a90a	-0.089677885
239	0xbde50dec	-0.11184296
240	0x3a4b0952	0.0007745224
241	0xbda0d70a	-0.078535154
242	0x3b8e4628	0.0043418594
243	0xbda22047	-0.07916313
244	0xbd362e10	-0.044477522
245	0xbcb3f540	-0.02196753
246	0xbd49d654	-0.049276665
247	0x3b9960db	0.0046807355
248	0x3b708195	0.003669833
249	0xbd79ded5	-0.061003525
250	0x3b9267bf	0.004467934
251	0xbd12a1f3	-0.035798978
252	0x3db509d3	0.088397644
253	0x3dd32a2f	0.1031078
254	0xbeedbe5d	-0.46434298
255	0x3d2ebe93	0.042662214

conv_layers.6.bias f4 [64]
0	0xbcffd9f2	-0.031231854
1	0x3d16feb2	0.03686399
2	0x3db943e4	0.09046152
3	0xbc39fab0	-0.011351272
4	0xbd9d12ef	-0.07669627
5	0xbcfd291d	-0.030903393
6	0x3caf6e04	0.021414764
7	0x3d469905	0.048485775
8	0xbcd0eb21	-0.025502743
9	0x3d8a1df9	0.06743998
10	0x3d2922cb	0.041292947
11	0xbb9f1d79	-0.0048558083
12	0x3cb82138	0.022476777
13	0x3d3766bd	0.044775713
14	0x3d26036e	0.040530615
15	0x3d5c36d8	0.05376324
16	0xbc8002a7	-0.015626265
17	0x3d2d935b	0.042376857
18	0xbb85eb55	-0.0040868917
19	0xbd618f15	-0.055068094
20	0x3d9a94a7	0.075478844
21	0x3d848db1	0.06472338
22	0xbc003289	-0.0078245485
23	0x3dfc3739	0.123152204
24	0x3d2f95dd	0.04286753
25	0xbd2b60f6	-0.041840516
26	0x3d14e228	0.036348492
27	0xbd01f030	-0.0317232
28	0x3d2d7d0b	0.04235558
29	0xbd0129ae	-0.03153389
30	0x3d5dd9bf	0.054162737
31	0xbc4f0b7d	-0.012637016
32	0xbd9ec5a9	-0.077525444
33	0xbd1143ea	-0.03546516
34	0x3cda8002	0.026672367
35	0xbcc94a31	-0.02457151
36	0x3c45b6a6	0.012067473
37	0x3d2f4687	0.04279187
38	0x3d0ea6ab	0.034826916
39	0x3c11d4b9	0.008900815
40	0x3d2ab658	0.041677803
41	0x3dd44cdf	0.103662245
42	0x3c342d1a	0.010997081
43	0x3d6e38d0	0.05815965
44	0x3dcb6f73	0.099333666
45	0xbdc020c8	-0.093812525
46	0x3d900f5f	0.07034182
47	0xbd16de6f	-0.036833223
48	0xbccd8554	-0.02508799
49	0x39ba2fbf	0.00035512258
50	0x3cafeb30	0.02147445
51	0x3d52d0d9	0.051468704
52	0x3c796208	0.015221126
53	0xbda11d08	-0.078668654
54	0x3c9d388b	0.019192
55	0x3d868692	0.06568636
56	0x3be4d5fd	0.006983517
57	0xbcbd39bd	-0.02309882
58	0xbc155d14	-0.00911643
59	0xbd15287f	-0.036415573
60	0xbd259b02	-0.04043103
61	0x3c1ba20e	0.009499086
62	0x3cae39c9	0.021267788
63	0xbb89e7f5	-0.0042085596

shape_head.label_embeddings f4 [3, 64]
0	0x400da50d	2.213199
1	0x3eb9958f	0.36246917
2	0x3f972fcb	1.181146
3	0xbf85cdfb	-1.0453485
4	0x3f77b4a5	0.96760017
5	0x3fe4b30a	1.7867138
6	0x3e09f0b3	0.13470726
7	0x3f5e534d	0.86845857
8	0x3ed51c0a	0.41622955
9	0x3fe82641	1.8136674
10	0x3f82848b	1.0196699
11	0xbf993f18	-1.197238
12	0xc00219bf	-2.0328214
13	0xbfa33f12	-1.2753623
14	0x3fa3c462	1.2794306
15	0x3f27c5e4	0.6553633
16	0x3ed64381	0.41848376
17	0x3ea7f215	0.3280188
18	0xbf6ada59	-0.9173942
19	0x3fbbb443	1.4664387
20	0x3e4257f1	0.1897886
21	0x3f2559e7	0.64590305
22	0xbf3d5809	-0.73962456
23	0x3f7d2b2d	0.98894006
24	0x404e7d64	3.2264032
25	0xc0454b36	-3.0827155
26	0x3f474101	0.77833563
27	0xbc283f38	-0.010268979
28	0x3f63f472	0.8904487
29	0xbf7d1324	-0.9885733
30	0x3dd559fd	0.104175545
31	0x3fa1bd5e	1.2635915
32	0xbeb0eca6	-0.34555548
33	0x3f412d0e	0.75459373
34	0xbf20b5fa	-0.62777674
35	0xbfcaaaa5	-1.5833327
36	0x3c98ca03	0.018651014
37	0xbfa7512b	-1.3071645
38	0xbfe14e0c	-1.7601943
39	0x3ffe9b3b	1.9891123
40	0xbeb12df2	-0.34605366
41	0xbfe511b4	-1.7896028
42	0x3fbc05cd	1.468927
43	0x3ef9386a	0.48675853
44	0x3f4484ce	0.76765144
45	0xbf88c06d	-1.0683724
46	0xbf67cda8	-0.9054818
47	0x3eb4b1bc	0.3529185
48	0xbfb4ae99	-1.4115783
49	0xbebbff7a	-0.3671835
50	0x3f76c8b1	0.9639998
51	0x3fb26cab	1.3939413
52	0xbf052784	-0.5201342
53	0x3e7eaa25	0.24869592
54	0xbf068ca6	-0.5255836
55	0xbf1e79cb	-0.6190459
56	0x3e55e034	0.20886308
57	0xbf3c4ad4	-0.7355168
58	0x3ffa22b6	1.9541843
59	0xbf1e9574	-0.619468
60	0xbec84e84	-0.39122403
61	0x3ec75abb	0.3893641
62	0xbf8e7546	-1.1129539
63	0xbffa4dca	-1.9554989
64	0x3f3597c7	0.7093472
65	0x3f51e036	0.81982744
66	0x3f875bc3	1.0574878
67	0x3fe5b549	1.7945949
68	0xbfad68e8	-1.354764
69	0xbe9f31a6	-0.31092566
70	0xbf2066cd	-0.6265686
71	0xbf57bcb1	-0.84272295
72	0x3f9cdc9c	1.2254825
73	0x3ecf7ce2	0.40524966
74	0x3f3df429	0.74200684
75	0x3fa96bd4	1.3236032
76	0xbfad3114	-1.3530602
77	0x3f5fa676	0.87363374
78	0xbf6b59c3	-0.9193384
79	0x3fa28679	1.2697288
80	0xbe87ed08	-0.26548028
81	0xbf421f8a	-0.75829375
82	0xbf4b1f33	-0.7934448
83	0xbf96ce7b	-1.1781763
84	0x3ee2ee89	0.44322613
85	0x3d856a54	0.06514421
86	0xbf822812	-1.0168478
87	0x3facd3fd	1.3502194
88	0x3f873b55	1.0564982
89	0x3ecdde36	0.40208596
90	0x3ef472bc	0.47743785
91	0xbbceca40	-0.006310731
92	0x3f402df1	0.750701
93	0xbe362289	-0.17786612
94	0x3f4e28e2	0.8053113
95	0x40037feb	2.0546825
96	0xbf2a8644	-0.66611123
97	0x3f1874cf	0.59553236
98	0x3f5d69cd	0.86489564
99	0xbf81144c	-1.0084319
100	0xc00bfdac	-2.187358
101	0xbf859e86	-1.0439003
102	0x3f86e103	1.0537418
103	0xbdc63a13	-0.096790455
104	0x3e3391db	0.17536108
105	0xbf7d1b2a	-0.98869574
106	0xbf1d40f9	-0.61427265
107	0xbfbbfc59	-1.4686385
108	0x3f3c2960	0.73500633
109	0xbebe0dd3	-0.37119922
110	0xbf4051e7	-0.75124973
111	0x3d16ee6a	0.036848463
112	0xbf13a56e	-0.576743
113	0x3f095c57	0.53656524
114	0x3de13fdf	0.109985106
115	0xbf79b9f2	-0.97549355
116	0x3e32202e	0.17395088
117	0x3df4da34	0.119556814
118	0xbec4401a	-0.38330156
119	0xbf212847	-0.62952083
120	0x3fcd41e2	1.6035731
121	0x3da2b9c2	0.07945587
122	0x3c88c008	0.01669313
123	0xbf4b244d	-0.79352266
124	0x3f4b9eb1	0.7953902
125	0xbe16f7e2	-0.14742997
126	0x3cdd5703	0.02701903
127	0xbf6485dc	-0.89266753
128	0xbeeeb4fe	-0.4662246
129	0x3f5801c3	0.8437769
130	0xbeff2e3f	-0.4983997
131	0xc0185e55	-2.3807576
132	0xbea7a457	-0.3274257
133	0xbfcea283	-1.6143345
134	0x3ec60707	0.38677236
135	0xc0079006	-2.1181655
136	0x3e4c75da	0.19966832
137	0xbf22e921	-0.63636976
138	0xbe5137ac	-0.20431393
139	0xbfaf94de	-1.3717306
140	0x3cf803ac	0.030275188
141	0x3ea70aec	0.3262552
142	0xbf7ce9f5	-0.9879449
143	0x3e92987d	0.28631964
144	0xbf32e2b5	-0.6987718
145	0xbff11d4c	-1.8837066
146	0x3f8c4964	1.0959897
147	0xbf030355	-0.5117696
148	0x3f8dd139	1.1079475
149	0xbed9d9b4	-0.42548907
150	0xbf5bd5b6	-0.8587297
151	0xbfea69dd	-1.8313557
152	0xbf8570ae	-1.0425012
153	0xbdd4a2c8	-0.103826106
154	0xbfcdff0b	-1.6093458
155	0xbf8734d6	-1.0562999
156	0xc00c9538	-2.1966076
157	0xbf2f8384	-0.6856005
158	0xbe0ee4f3	-0.13954525
159	0xbf34b841	-0.7059365
160	0xbf99acb6	-1.2005832
161	0xbf3db799	-0.7410827
162	0x3e5e651d	0.21718259
163	0xbf3f0790	-0.74620914
164	0xbff5759f	-1.917652
165	0xbfaa0329	-1.3282214
166	0x3bb47e1c	0.0055081975
167	0xbfe4c8d7	-1.7873791
168	0x3e33429e	0.17505881
169	0xbf2dfd09	-0.67964226
170	0x3f77129e	0.9651278
171	0x3f0bd9d2	0.5462924
172	0xbfbc8929	-1.4729358
173	0xbf13e2fd	-0.5776823
174	0x3d1410f0	0.036148965
175	0xbe0b2ae0	-0.13590574
176	0x3ea34c97	0.3189437
177	0x3f400f4c	0.7502334
178	0xbf931ef4	-1.1493821
179	0xbfa5c54e	-1.2950838
180	0xbe8cee9c	-0.27525795
181	0xbe2a77c7	-0.16647254
182	0xbeeb19a4	-0.45918
183	0x3f7dcb54	0.9913838
184	0xbf081347	-0.53154415
185	0xbf7f54d6	-0.99738824
186	0xbf06b481	-0.5261918
187	0xbeb9f8f4	-0.3632275
188	0xc047f1be	-3.1241298
189	0x3ef95ac4	0.4870206
190	0x3f0729a0	0.5279789
191	0xbb1b8825	-0.0023732272

color_head.label_embeddings f4 [3, 64]
0	0x40074ab6	2.113935
1	0x3f98c38d	1.1934677
2	0xbf0180f0	-0.5058737
3	0xbf4c3052	-0.7976123
4	0xbf87b701	-1.0602723
5	0x3f784737	0.96983665
6	0x3de32f38	0.11092991
7	0xbfea4195	-1.8301264
8	0x3f6df37d	0.9294966
9	0xbeea93b4	-0.45815814
10	0x3fe5f5e9	1.7965671
11	0xbd97711a	-0.07394619
12	0x3ef15c3e	0.47140688
13	0xbf86d5e9	-1.053403
14	0x3e93138a	0.28725845
15	0x3ee97135	0.45594183
16	0x3fcdf4ee	1.6090372
17	0xbfa6134c	-1.2974639
18	0x3f7bb5b8	0.98324156
19	0xbfa8c7a4	-1.3185925
20	0x3f278e43	0.6545145
21	0xbf55a6f9	-0.83457905
22	0xbf5a2f01	-0.8522797
23	0x3fae3470	1.3609753
24	0xbf255e0c	-0.6459663
25	0xc0452a06	-3.08069
26	0x3e2ae7c9	0.16689982
27	0xc02270cf	-2.5381353
28	0xbeafe01f	-0.34350678
29	0xbf8bf811	-1.0935079
30	0x3fbfda37	1.4988469
31	0x3f123d8e	0.57125175
32	0xbf9a87e8	-1.2072725
33	0x3e7385e5	0.23781545
34	0xbfc91b92	-1.5711539
35	0xbf72134e	-0.94560707
36	0xc0326595	-2.78745
37	0xbf0672c4	-0.5251887
38	0x3fdb144d	1.711557
39	0x3f16a305	0.588425
40	0xbec74abf	-0.38924214
41	0xbf3e8211	-0.74417216
42	0x3f35b7b5	0.7098344
43	0x3ec62f32	0.38707882
44	0x3e88618d	0.26636925
45	0xbfe827ef	-1.8137187
46	0xbfd0767c	-1.6286159
47	0x3ed7978d	0.42107812
48	0x3f1704a5	0.5899146
49	0x3ee842be	0.4536342
50	0xbe87dadf	-0.26534173
51	0x3f959d78	1.1688681
52	0x3f4adfe1	0.7924786
53	0xbf6af6f5	-0.91783077
54	0x3eaef057	0.3416774
55	0xbe478416	-0.1948398
56	0xbe1a942e	-0.15095589
57	0xbcfb9e94	-0.030715264
58	0xbf9dfb70	-1.2342358
59	0x3ee418cd	0.44550171
60	0x3d9bdf1b	0.07610913
61	0x3eaa77a4	0.33294404
62	0xbfdd1f8e	-1.7275255
63	0xbfd6ff71	-1.6796705
64	0xbe8a943f	-0.27066228
65	0x3ed2d0ef	0.4117503
66	0x3e5878a4	0.21139771
67	0xbf3a3be1	-0.7274762
68	0xbf719edd	-0.9438303
69	0x3efb2c6f	0.49057338
70	0x4005863f	2.0863187
71	0x3f56e59a	0.83944094
72	0x3f58d043	0.8469278
73	0x3f332904	0.6998446
74	0x3f104fa5	0.5637153
75	0x3e52b551	0.20576979
76	0x3f7924c4	0.97321725
77	0x3e94af16	0.2903983
78	0xbe6f3d1a	-0.23363152
79	0xbeb4825b	-0.35255703
80	0xbf2e03e5	-0.6797469
81	0xbe62beb6	-0.22143063
82	0xbe8cd6b3	-0.27507553
83	0xbebd8935	-0.37018743
84	0xbe94add5	-0.29038873
85	0xbfdf779a	-1.7458375
86	0x400cb1c2	2.1983495
87	0x3f9f08f5	1.2424608
88	0xbf8979b7	-1.074027
89	0x3f98eb72	1.1946852
90	0x3f832051	1.0244237
91	0x3fd5289c	1.6653018
92	0xbe93f02f	-0.28894183
93	0x3d98c393	0.07459178
94	0xbfd2a993	-1.6458
95	0x3fdac35d	1.709087
96	0xbf0857d8	-0.5325904
97	0xbf71cb35	-0.94450694
98	0xbf511fdc	-0.8168924
99	0xbf3798b4	-0.7171738
100	0xbf784c2b	-0.96991223
101	0x3ff80188	1.9375467
102	0x3fa3f0fe	1.280792
103	0xbf3a6035	-0.7280305
104	0xbca139aa	-0.019680817
105	0xbf6ba53a	-0.9204899
106	0x3e53b932	0.20676115
107	0xc01a486a	-2.4106698
108	0x3dce377f	0.10069179
109	0xbfc0019d	-1.5000492
110	0xbd3b131f	-0.045672532
111	0xbff2b165	-1.8960387
112	0x4001cef8	2.0282574
113	0xbf44321e	-0.7663897
114	0xbe635b02	-0.22202685
115	0x3e9959c1	0.2995129
116	0x400d5f00	2.2089233
117	0x3f1c65cd	0.61092836
118	0x3f3d7e4c	0.7402084
119	0xbe6df15c	-0.23236603
120	0xbe0bd920	-0.13657045
121	0xbee5d286	-0.4488718
122	0xbf8c12f2	-1.0943282
123	0xbf830165	-1.02348
124	0xbe97e0b3	-0.2966362
125	0x3f5670a1	0.8376561
126	0xbf94466e	-1.1583993
127	0xbedfbf7f	-0.43700787
128	0xbea31f0e	-0.3185963
129	0x3c028676	0.007966628
130	0xbfe37429	-1.7769824
131	0xbf1c0a98	-0.60953665
132	0xbe388152	-0.18018082
133	0x3ee28acd	0.44246522
134	0x3efda4bd	0.49539748
135	0x3ec88563	0.39164266
136	0x400708bb	2.1099079
137	0x3fbfaca7	1.4974564
138	0xbe72aa0e	-0.23697683
139	0xbf0127cd	-0.50451356
140	0xbc099089	-0.008396276
141	0x3fac6fd9	1.3471633
142	0xbfb7ef50	-1.4369907
143	0x402c838a	2.6955285
144	0xc02aa268	-2.6661625
145	0xbf8cf79a	-1.1013062
146	0xbfdcb1fa	-1.7241814
147	0x3ec4e5fa	0.38456708
148	0xbdc89880	-0.09794712
149	0x3f93f4a6	1.1559036
150	0x3f13880f	0.57629484
151	0xbdfe84ba	-0.12427659
152	0x3f2fb351	0.6863299
153	0x40146251	2.3185008
154	0xbfe17681	-1.761429
155	0x3e1d18a7	0.15341435
156	0x3ed42a93	0.41438732
157	0x3fca7f99	1.582019
158	0xc010d94a	-2.2632623
159	0x3f8605ce	1.0470521
160	0xbedb358e	-0.42814296
161	0x3f874456	1.056773
162	0x3f360f40	0.7111702
163	0x3f243f7a	0.6415936
164	0xbffefec2	-1.9921496
165	0x3d4ddec9	0.050261293
166	0xbd16d98b	-0.03682856
167	0x3e94249f	0.2893419
168	0xbed61259	-0.41810873
169	0xbebd08fa	-0.3692091
170	0x3e97f0c8	0.2967589
171	0x3f6bcc89	0.9210897
172	0xbd714cdf	-0.0589112
173	0x3ecc7b6e	0.3993792
174	0xbf03320c	-0.5124824
175	0xbf85d5eb	-1.0455908
176	0x3cb1b9b5	0.021694997
177	0x3edb1325	0.42788044
178	0x3e18dd31	0.14928128
179	0xbeceef83	-0.40417108
180	0xbf8ffd03	-1.1249088
181	0xbf4eaac7	-0.80729336
182	0xc022cc26	-2.5437102
183	0xbcae05ff	-0.021243094
184	0x3f7421a5	0.9536384
185	0xbe7a4e43	-0.24443917
186	0xbf0ee8ea	-0.5582415
187	0xbf39b532	-0.7254211
188	0xbfb353f9	-1.4010001
189	0xbf29c12a	-0.6631037
190	0x3f10671e	0.56407344
191	0xbe7bd938	-0.24594581
